…
ing='same'))\n","generator.add(LeakyReLU(0.2))\n","generator.add(UpSampling2D(size=(2, 2)))\n","generator.add(Conv2D(1, kernel_size=(5, 5), padding='same', activation='tanh'))\n","generator.compile(loss='binary_crossentropy', optimizer=adam)\n","generator.summary()"],"execution_count":95,"outputs":[{"output_type":"stream","text":["Model: \"sequential_6\"\n","_________________________________________________________________\n","Layer (type)                 Output Shape              Param #   \n","=================================================================\n","dense_10 (Dense)             (None, 6272)              68992     \n","_________________________________________________________________\n","leaky_re_lu_16 (LeakyReLU)   (None, 6272)              0         \n","_________________________________________________________________\n","reshape_6 (Reshape)          (None, 7, 7, 128)         0         \n","_________________________________________________________________\n","up_sampling2d_8 (UpSampling2 (None, 14, 14, 128)       0         \n","_________________________________________________________________\n","conv2d_16 (Conv2D)           (None, 14, 14, 64)        204864    \n","_________________________________________________________________\n","leaky_re_lu_17 (LeakyReLU)   (None, 14, 14, 64)        0         \n","_________________________________________________________________\n","up_sampling2d_9 (UpSampling2 (None, 28, 28, 64)        0         \n","_________________________________________________________________\n","conv2d_17 (Conv2D)           (None, 28, 28, 1)         1601      \n","=================================================================\n","Total params: 275,457\n","Trainable params: 275,457\n","Non-trainable params: 0\n","_________________________________________________________________\n"],"name":"stdout"}]},{"cell_type":"markdown","metadata":{"id":"4x2J0DyBNRW0"},"source":["Here, we define the discriminator $D$. The discriminator is trained with the `
…
ame'))\n","discriminator.add(LeakyReLU(0.2))\n","discriminator.add(Dropout(0.3))\n","discriminator.add(Flatten())\n","discriminator.add(Dense(1, activation='sigmoid'))\n","discriminator.compile(loss='binary_crossentropy', optimizer=adam)\n","discriminator.summary()"],"execution_count":96,"outputs":[{"output_type":"stream","text":["Model: \"sequential_7\"\n","_________________________________________________________________\n","Layer (type)                 Output Shape              Param #   \n","=================================================================\n","conv2d_18 (Conv2D)           (None, 14, 14, 64)        1664      \n","_________________________________________________________________\n","leaky_re_lu_18 (LeakyReLU)   (None, 14, 14, 64)        0         \n","_________________________________________________________________\n","dropout_4 (Dropout)          (None, 14, 14, 64)        0         \n","_________________________________________________________________\n","conv2d_19 (Conv2D)           (None, 7, 7, 128)         204928    \n","_________________________________________________________________\n","leaky_re_lu_19 (LeakyReLU)   (None, 7, 7, 128)         0         \n","_________________________________________________________________\n","dropout_5 (Dropout)          (None, 7, 7, 128)         0         \n","_________________________________________________________________\n","flatten_6 (Flatten)          (None, 6272)              0         \n","_________________________________________________________________\n","dense_11 (Dense)             (None, 1)                 6273      \n","=================================================================\n","Total params: 212,865\n","Trainable params: 212,865\n","Non-trainable params: 0\n","_________________________________________________________________\n"],"name":"stdout"}]},{"cell_type":"markdown","metadata":{"id":"QCmi_IDwNasg"},"source":["We defined the combined network, which combines the generator and discriminato
…
