…
utput_type":"stream","text":["Model: \"model_4\"\n","__________________________________________________________________________________________________\n","Layer (type)                    Output Shape         Param #     Connected to                     \n","==================================================================================================\n","input_2 (InputLayer)            [(None, 32, 32, 1)]  0                                            \n","__________________________________________________________________________________________________\n","conv2d_9 (Conv2D)               (None, 16, 16, 32)   320         input_2[0][0]                    \n","__________________________________________________________________________________________________\n","conv2d_10 (Conv2D)              (None, 8, 8, 64)     18496       conv2d_9[0][0]                   \n","__________________________________________________________________________________________________\n","conv2d_11 (Conv2D)              (None, 4, 4, 128)    73856       conv2d_10[0][0]                  \n","__________________________________________________________________________________________________\n","conv2d_12 (Conv2D)              (None, 2, 2, 256)    295168      conv2d_11[0][0]                  \n","__________________________________________________________________________________________________\n","flatten_1 (Flatten)             (None, 1024)         0           conv2d_12[0][0]                  \n","__________________________________________________________________________________________________\n","representation (Dense)          (None, 10)           10250       flatten_1[0][0]                  \n","__________________________________________________________________________________________________\n","dense_3 (Dense)                 (None, 1024)         11264       representation[0][0]             \n","__________________________________________________________________________________________________\n","reshape_1 (Reshape)             (None, 2, 2, 256)    0           dense_3[0][0]                    \n","__________________________________________________________________________________________________\n","up_sampling2d_4 (UpSampling2D)  (None, 4, 4, 256)    0           reshape_1[0][0]                  \n","__________________________________________________________________________________________________\n","conv2d_13 (Conv2D)              (None, 4, 4, 256)    590080      up_sampling2d_4[0][0]            \n","__________________________________________________________________________________________________\n","concatenate_3 (Concatenate)     (None, 4, 4, 384)    0           conv2d_11[0][0]                  \n","                                                                 conv2d_13[0][0]                  \n","__________________________________________________________________________________________________\n","up_sampling2d_5 (UpSampling2D)  (None, 8, 8, 384)    0           concatenate_3[0][0]              \n","__________________________________________________________________________________________________\n","conv2d_14 (Conv2D)              (None, 8, 8, 64)     221248      up_sampling2d_5[0][0]            \n","__________________________________________________________________________________________________\n","concatenate_4 (Concatenate)     (None, 8, 8, 128)    0           conv2d_10[0][0]                  \n","                                                                 conv2d_14[0][0]                  \n","__________________________________________________________________________________________________\n","up_sampling2d_6 (UpSampling2D)  (None, 16, 16, 128)  0           concatenate_4[0][0]              \n","__________________________________________________________________________________________________\n","conv2d_15 (Conv2D)              (None, 16, 16, 32)   36896       up_sampling2d_6[0][0]            \n","__________________________________________________________________________________________________\n","concatenate_5 (Concatenate)     (None, 16, 16, 64)   0           conv2d_9[0][0]                   \n","                                                                 conv2d_15[0][0]                  \n","__________________________________________________________________________________________________\n","up_sampling2d_7 (UpSampling2D)  (None, 32, 32, 64)   0           concatenate_5[0][0]              \n","__________________________________________________________________________________________________\n","conv2d_16 (Conv2D)              (None, 32, 32, 32)   18464       up_sampling2d_7[0][0]            \n","__________________________________________________________________________________________________\n","conv2d_17 (Conv2D)              (None, 32, 32, 1)    289         conv2d_16[0][0]                  \n","==================================================================================================\n","Total params: 1,276,331\n","Trainable params: 1,276,331\n","Non-trainable params: 0\n","__________________________________________________________________________________________________\n","Epoch 1/10\n","469/469 [==============================] - 1
…
            metrics=['mse'])\n","# You can modify the number of epochs or other hyperparameters\n","epochs = 10\n","history = conv_autoencoder.fit(x_train_32, x_train_32, batch_size=128,\n","          epochs=epochs, verbose=1, validation_data=(x_test_32,x_test_32))"],"execution_count":null,"outputs":[{"output_type":"stream","text":["Model: \"sequential\"\n","_________________________________________________________________\n","Layer (type)                 Output Shape              Param #   \n","=================================================================\n","conv2d (Conv2D)              (None, 16, 16, 32)        320       \n","_________________________________________________________________\n","conv2d_1 (Conv2D)            (None, 8, 8, 64)          18496     \n","_________________________________________________________________\n","conv2d_2 (Conv2D)            (None, 4, 4, 128)         73856     \n","_________________________________________________________________\n","conv2d_3 (Conv2D)            (None, 2, 2, 256)         295168    \n","_________________________________________________________________\n","flatten (Flatten)            (None, 1024)              0         \n","_________________________________________________________________\n","dense (Dense)                (None, 1024)              1049600   \n","_________________________________________________________________\n","representation (Dense)       (None, 10)                10250     \n","_________________________________________________________________\n","dense_1 (Dense)              (None, 1024)              11264     \n","_________________________________________________________________\n","reshape (Reshape)            (None, 2, 2, 256)         0         \n","_________________________________________________________________\n","up_sampling2d (UpSampling2D) (None, 4, 4, 256)         0         \n","_________________________________________________________________\n","conv2d_4 (Conv2D)            (None, 4, 4, 128)         295040    \n","_________________________________________________________________\n","up_sampling2d_1 (UpSampling2 (None, 8, 8, 128)         0         \n","_________________________________________________________________\n","conv2d_5 (Conv2D)            (None, 8, 8, 64)          73792     \n","_________________________________________________________________\n","up_sampling2d_2 (UpSampling2 (None, 16, 16, 64)        0         \n","_________________________________________________________________\n","conv2d_6 (Conv2D)            (None, 16, 16, 32)        18464     \n","_________________________________________________________________\n","up_sampling2d_3 (UpSampling2 (None, 32, 32, 32)        0         \n","_________________________________________________________________\n","conv2d_7 (Conv2D)            (None, 32, 32, 1)         289       \n","=================================================================\n","Total params: 1,846,539\n","Trainable params: 1,846,539\n","Non-trainable params: 0\n","_________________________________________________________________\n","Epoch 1/10\n","469/469 [==============================] - 370s 786ms/step - loss: 0.0547 - mse: 0.0547 - val_loss: 0.0148 - val_mse: 0.0148\n","Epoch 2/10\n","4
…
